model/model.pth (torch, 76980 bytes, 6 tensors)

fc1.weight f4 [128, 13]
-0.1949998 0.12777907 0.13195316 -0.10144355 0.04682684 -0.20131569 0.15309851 -0.1273139
-0.05313588 -0.114085905 0.053296104 -0.07029115 0.21280064 -0.22482136 0.23409732 -0.0071865865
0.09353057 -0.23573212 0.25628427 -0.25344697 -0.24165939 -0.077466354 0.26749414 -0.0023173336
-0.31096303 -0.042931758 -0.03178764 0.22226351 0.016291356 0.06897484 -0.08477388 -0.19275326
0.34817615 -0.078297116 0.06664425 0.14865863 -0.23791312 0.014817805 0.26619262 -0.022412226
0.23568569 0.236591 -0.2804776 -0.010718077 -0.3012211 0.17100936 0.016226947 -0.18348423
-0.11888363 -0.053057127 -0.019645173 0.09141227 0.19942985 -0.10872016 0.027353391 -0.019301157
0.050371446 0.054343008 0.21463694 0.044793285 0.05363168 -0.24088421 0.18192555 -0.15838532
-0.1435891 -0.16009074 0.020953009 -0.08600768 0.11934854 0.15022996 -0.14919415 0.1031835
0.031873923 0.06335062 0.07895714 -0.3003447 0.23645143 0.26249024 -0.04087491 -0.23932785
-0.0373454 -0.016140249 0.16986868 -0.012336153 -0.10065402 0.13457388 0.23477492 -0.11672923
-0.16442488 0.07116334 0.15290837 0.11349805 0.33551437 -0.18094337 0.25639015 0.14872651
0.32481685 0.064649254 -0.20379868 0.14578894 -0.2583206 0.075090915 -0.22639146 0.2357176
0.18988699 -0.2666356 -0.20467493 -0.2771918 0.20835426 -0.16944054 0.039447844 0.1978147
-0.24995248 -0.054146305 -0.12231007 0.046447992 -0.041347623 0.029733796 -0.06370891 0.27952987
-0.23134336 -0.22494183 -0.10292085 -0.0499925 0.27242848 -0.02554592 -0.08596893 -0.07342205
-0.14891382 0.19129552 -0.16166338 0.07471069 0.307799 0.2282403 -0.1597181 -0.10716929
-0.30881524 0.18275382 -0.05804781 -0.0924977 -0.31116474 -0.046380054 -0.22059612 -0.13668805
0.22013427 0.31602335 0.14974618 0.2079888 -0.066956736 -0.19968414 -0.18252201 0.207092
-0.008500681 0.09518719 0.08788719 -0.021490633 0.23445198 -0.15039039 0.186733 -0.04533807
-0.08964417 -0.26410317 -0.1111855 -0.13459368 0.0023814389 0.030869821 -0.21158727 -0.016025234
0.14530344 0.20969698 -0.1872585 0.16807581 -0.063766025 -0.010935318 -0.2537236 0.2687866
-0.023139102 -0.17168365 0.13762988 -0.2824093 -0.11091898 -0.10794498 0.17928207 -0.12531209
0.01121572 -0.005029743 -0.11528616 -0.10738503 0.14373922 0.23623827 -0.21207301 -0.23341838
0.043973032 0.13969499 0.058678936 0.24361594 -0.14323199 0.22454667 0.06607308 -0.092164114
-0.1595906 0.0636318 0.14220339 -0.026788466 0.015948677 -0.26680893 0.14825857 0.22960463
-0.0038574836 -0.10862613 -0.2630889 -0.10994621 -0.12436795 -0.07777181 -0.24916422 -0.09278294
0.14438641 0.080356225 0.24773213 0.20203242 0.17860463 -0.24252245 -0.20719881 0.038195897
-0.065405875 0.11010503 0.18785155 0.2645122 0.1512151 -0.20293379 0.19404039 0.055735484
0.037206415 -0.21872503 -0.08282598 0.22676615 0.35557297 0.11800588 -0.14611636 0.068417706
-0.16087204 -0.19115953 -0.1104926 -0.050263103 -0.22174604 0.14283906 0.14258039 -0.20243366
-0.21882224 0.040598724 0.20753118 0.19130258 0.21347281 0.059502814 -0.08030265 -0.16474672
00000000: 07ae 47be 84d8 023e bb1e 073e a3c1 cfbd
00000010: 80cd 3f3d b325 4ebe dbc5 1c3e 935e 02be
00000020: 02a5 59bd dfa5 e9bd 044d 5a3d cef4 8fbd
00000030: 69e8 593e 9237 66be 35b7 6f3e 757d ebbb
00000040: f58c bf3d c363 71be b137 833e cdc3 81be
00000050: 8f75 77be aea6 9ebd fef4 883e 68de 17bb
00000060: 8c36 9fbe 36d9 2fbd c233 02bd 0c99 633e
00000070: 7375 853c ae42 8d3d ee9d adbd 1c61 45be
00000080: 2544 b23e 3d5a a0bd c87c 883d f839 183e
00000090: 7f9f 73be 61c6 723c 664a 883e d899 b7bc
000000a0: 9757 713e e944 723e c39a 8fbe e09a 2fbc
000000b0: a739 9abe 141d 2f3e 60ee 843c 4ae3 3bbe
000000c0: 4379 f3bd 6e52 59bd eaee a0bc 5b36 bb3d
000000d0: 5737 4c3e ada8 debd 3814 e03c 761d 9ebc
000000e0: 4a52 4e3d c696 5e3d c9c9 5b3e 2a79 373d
000000f0: e4ac 5b3d 5aaa 76be b14a 3a3e c32f 22be
00000100: 0509 13be d4ee 23be a5a5 ab3c cb24 b0bd
00000110: 026d f43d e2d5 193e 5ac6 18be df51 d33d
00000120: 3b8e 023d f8bd 813d 48b4 a13d c8c6 99be
00000130: 5320 723e 1f65 863e 736c 27bd 5c12 75be
00000140: 7df7 18bd 8e38 84bc 0ef2 2d3e 931d 4abc
00000150: b223 cebd bccd 093e d668 703e bc0f efbd
00000160: ff5e 28be 16be 913d 0394 1c3e aa71 e83d
00000170: 8ac8 ab3e 3849 39be 9245 833e c34b 183e
00000180: 654e a63e d466 843d 9ab0 50be b249 153e
00000190: 9942 84be 44c9 993d 2ad3 67be f45f 713e
000001a0: bc71 423e 7684 88be 4e96 51be 15ec 8dbe
000001b0: d25a 553e d281 2dbe 1094 213d f08f 4a3e
000001c0: 8bf3 7fbe 84c8 5dbd b47d fabd 4040 3e3d
000001d0: 205c 29bd 4a94 f33c d179 82bd 8a1e 8f3e
000001e0: 46e5 6cbe 2757 66be 2bc8 d2bd f0c4 4cbd
000001f0: bf7b 8b3e ad45 d1bc 7a10 b0bd 4d5e 96bd
00000200: dd7c 18be f9e2 433e 168b 25be eb01 993d
00000210: d597 9d3e d3b7 693e 248d 23be 937b dbbd
00000220: 081d 9ebe d123 3b3e 8ac3 6dbd 6f6f bdbd
00000230: fc50 9fbe 03f9 3dbd f3e3 61be f4f7 0bbe
00000240: e16a 613e d0cd a13e 1057 193e 04fb 543e
00000250: 9d20 89bd 007a 4cbe 0de7 3abe ed0f 543e
00000260: 7146 0bbc 80f1 c23d 33fe b33d 200d b0bc
00000270: 2e14 703e f0ff 19be f036 3f3e 69b4 39bd
00000280: 5d97 b7bd 8838 87be 39b5 e3bd edd2 09be
00000290: ea11 1c3b b5e2 fc3c 55aa 58be 5a47 83bc
000002a0: 6dca 143e ceba 563e b1c0 3fbe 111c 2c3e
000002b0: c397 82bd 0c2a 33bc 0fe8 81be 669e 893e
000002c0: 378e bdbc d7cd 2fbe d9ee 0c3e f497 90be
000002d0: 7d29 e3bd 4212 ddbd b895 373e d051 00be
000002e0: 24c2 373c 8bd0 a4bb 261b ecbd afec dbbd
000002f0: 6030 133e 72e8 713e ab29 59be 3a05 6fbe
00000300: 111d 343d 340c 0f3e 5359 703d 7576 793e
00000310: 68ab 12be 90ef 653e 5351 873d 8ac0 bcbd
00000320: b86b 23be 6451 823d c49d 113e 7c73 dbbc
00000330: cda6 823c 2e9b 88be 18d1 173e 7a1d 6b3e
00000340: d6cd 7cbb 6077 debd 97b3 86be 7b2b e1bd
00000350: a0b4 febd d446 9fbd e824 7fbe fb04 bebd
00000360: 08da 133e ce91 a43d 7ead 7d3e 96e1 4e3e
00000370: 22e4 363e ce57 78be ed2b 54be 4d73 1c3d
00000380: 84f3 85bd bf7e e13d 285c 403e 256e 873e
00000390: 22d8 1a3e e0cd 4fbe 86b2 463e e44a 643d
000003a0: c165 183d 74f9 5fbe aba0 a9bd 6335 683e
000003b0: a90d b63e 11ad f13d 879f 15be 951e 8c3d
000003c0: a4bb 24be 53bf 43be f249 e2bd afe0 4dbd
000003d0: 6511 63be 6744 123e 9800 123e c54a 4fbe
000003e0: f012 60be d94a 263d 0e83 543e d3e4 433e
000003f0: 9e98 5a3e 39b9 733d b775 a4bd 5db3 28be

fc1.bias f4 [128]
0.19424562 0.31565875 0.29501113 -0.28173414 0.21097031 -0.24252605 -0.20083906 0.17105623
0.054799497 0.27016708 0.17197052 -0.0006539192 0.02653061 0.2722213 -0.3054542 -0.20972219
0.20023036 0.23157506 0.14672302 0.31233463 0.13573483 0.15314093 0.27979487 -0.23842269
0.04880885 -0.23530322 0.1445659 -0.23454998 0.08433261 0.2949796 0.23152274 -0.20848438
0.18568525 0.054797184 -0.28282082 -0.2756857 0.33314228 -0.015294611 -0.29380867 0.11614953
0.2898688 0.048022084 0.11961991 -0.2452544 0.03873841 -0.03258088 -0.32059106 -0.10718008
-0.1525736 0.347073 0.29388624 0.12314825 0.06968251 0.07701833 0.17535768 0.10821313
0.21599594 0.055970024 -0.21873774 0.11243093 -0.10650026 0.25151855 0.09811412 -0.12423342
-0.011257172 0.21938789 0.30814013 -0.090595596 0.17790987 -0.19109088 -0.13298053 -0.10955384
0.018773613 0.08078651 -0.08626381 -0.13107014 0.23445313 0.0067742765 0.10505569 0.18767458
0.07158203 0.16932464 0.21267392 0.23996395 0.2514639 0.20567647 -0.21354377 0.22164012
0.048267912 -0.08683628 0.23228501 0.019241527 0.055850953 0.14461158 -0.20328648 0.113965146
-0.21486835 -0.115838215 0.20608938 -0.09531592 -0.2275338 -0.20006995 0.3208792 0.22813515
0.031403378 0.06492638 0.15177199 -0.2309137 0.15815778 -0.1056281 -0.2164264 0.21024354
-0.09209754 0.22570515 0.07825796 -0.05600489 0.3171053 0.16087723 0.12779267 -0.1238492
0.067553945 0.20300367 0.025998795 0.023060935 0.08635408 -0.15145497 -0.30416864 0.16423307
00000000: 53e8 463e 069e a13e b30b 973e 753f 90be
00000010: 9a08 583e c058 78be c1a8 4dbe 5d29 2f3e
00000020: 7075 603d 5753 8a3e 0a19 303e c66b 2bba
00000030: b956 d93c 9760 8b3e 7e64 9cbe 6ac1 56be
00000040: 3009 4d3e 0322 6d3e 8f3e 163e 53ea 9f3e
00000050: 12fe 0a3e fad0 1c3e 4641 8f3e 1425 74be
00000060: caeb 473d 54f3 70be 1509 143e df2d 70be
00000070: 93b6 ac3d 9107 973e 4c14 6d3e ee7c 55be
00000080: 4624 3e3e 0373 603d e4cd 90be ad26 8dbe
00000090: a091 aa3e 4096 7abc 176e 96be cedf ed3d
000000a0: af69 943e ceb2 443d 49fb f43d f823 7bbe
000000b0: 2bac 1e3d 8773 05bd 8324 a4be 3b81 dbbd
000000c0: 413c 1cbe 8db3 b13e 4278 963e 2635 fc3d
000000d0: b4b5 8e3d c9bb 9d3d f790 333e d89e dd3d
000000e0: 0a2e 5d3e d340 653d c9fc 5fbe 3042 e63d
000000f0: cf1c dabd 0ac7 803e 0ef0 c83d 176e febd
00000100: 0070 38bc 38a7 603e 8bc4 9d3e 2f8a b9bd
00000110: 012e 363e 54ad 43be 0c2c 08be c35d e0bd
00000120: 1fcb 993c 6673 a53d 15ab b0bd 4037 06be
00000130: 7b14 703e c0fa dd3b 7027 d73d c42d 403e
00000140: 9999 923d 7063 2d3e 31c7 593e 1cb9 753e
00000150: e0bf 803e da9c 523e 38ab 5abe a1f5 623e
00000160: 93b4 453d 38d7 b1bd 1fdc 6d3e 68a0 9d3c
00000170: f8c3 643d 0f15 143e 552a 50be 8f66 e93d
00000180: 7306 5cbe 963c edbd 1809 533e fe34 c3bd
00000190: 9ffe 68be 23df 4cbe 474a a43e 439c 693e
000001a0: d4a0 003d 1ff8 843d 1e6a 1b3e a474 6cbe
000001b0: 1df4 213e 8c53 d8bd e29e 5dbe 154a 573e
000001c0: a39d bcbd 401f 673e b645 a03d 6265 65bd
000001d0: a05b a23e 00bd 243e 15dc 023e a6a4 fdbd
000001e0: b959 8a3d 32e0 4f3e 6dfb d43c 49ea bc3c
000001f0: 68da b03d 0317 1bbe febb 9bbe b72c 283e

fc2.weight f4 [128, 128]
0.0028964803 -0.048248406 0.005460821 -0.045048617 0.06954431 -0.03767568 0.0698817 -0.043360077
0.035959996 -0.061327815 -0.067546725 -0.04831015 0.001890026 -0.013097554 -0.058250263 -0.0116763115
-0.0013384148 0.05633507 -0.07589303 0.06235101 -0.051897414 -0.039052986 0.03581897 0.043104477
0.011332922 -0.039086837 -0.03702903 -0.0041618347 -0.047424518 -0.036667295 0.074127756 0.07993326
-0.02522748 -0.020322934 -0.014769405 -0.02910323 0.024304278 -0.03951481 0.017553024 -0.046554588
0.029483132 -0.07366559 -0.0671581 -0.0009795278 0.07661823 0.038035326 -0.044752736 0.0751925
-0.08419341 0.026952744 -0.07795388 -0.004281454 0.075393595 -0.0019218028 -0.06611453 0.03828091
-0.07243891 0.031319715 0.07943139 -0.06565752 -0.06665107 0.030394979 -0.0774583 -0.055022087
0.052157886 -0.041758075 0.032455057 0.029152364 -0.015264347 0.011004314 -0.02114141 -0.024759531
0.067568295 -0.0072991103 -0.053453688 0.042247258 0.06268249 -0.0013821349 0.011009894 -0.08055429
-0.008474171 -0.056799285 0.019015804 -0.047017075 -0.04176548 -0.067272134 0.0801904 -0.046270464
-0.06296955 -0.07690744 -0.08747943 0.059351407 0.07538348 -0.013144657 -0.032949984 -0.07078968
-0.02495493 -0.022358418 0.015745543 0.07374906 0.06691637 -0.023232363 0.064947985 -0.01610899
0.07918323 -0.009635158 0.07962752 0.06753846 -0.049331915 0.00041022897 -0.032503437 0.05560624
0.07491212 -0.01977899 0.07527196 0.01305566 0.012291282 -0.021792628 -0.0030587018 -0.069807105
-0.07777207 0.011742182 0.057725407 -0.004865065 -0.07485936 -0.08108508 0.04799255 -0.0801056
0.06156639 -0.012289189 0.026050039 0.04151327 0.06324943 0.018304989 0.0042365715 0.052235417
-0.043016233 -0.04245534 0.020923294 -0.067412734 -0.05214601 -0.06576902 -0.0032402202 -0.021918282
-0.05893085 0.07374952 -0.057265736 -0.006874338 -0.03233233 -0.068021595 -0.07071134 0.0376535
-0.07919077 -0.08531739 0.009233728 -0.0061523467 0.06715337 0.009490773 -0.002082415 -0.019395873
0.021530442 0.08528929 0.054922752 0.031550877 -0.0863598 -0.033654343 -0.038800336 -0.07094226
-0.011252567 0.028679088 -0.016041115 0.06487834 -0.008291319 -0.070782304 0.08662788 -0.024367824
0.029378548 -0.017577171 0.0074926764 -0.08046147 -0.06162165 0.047354825 -0.032445002 -0.05538944
-0.042347793 -0.071317494 0.015961632 0.046230085 -0.013420388 -0.07823548 -0.032352373 -0.06631136
-0.07103363 -0.05589973 -0.044012457 -0.07668832 0.009747975 -0.036037896 -0.037833497 0.017509222
-0.033069734 -0.07516431 0.010482006 0.03271445 0.016156696 0.073497556 0.00059081614 0.05679045
0.018015914 -0.027839046 -0.0066721216 -0.053869847 -0.023312435 -0.03757011 0.011028364 0.0033330992
0.0273754 0.0053005666 -0.07125311 0.054916866 0.08474306 0.08825975 0.010492332 0.01643318
-0.051221855 0.065590374 0.04080189 0.08424049 -0.05531189 -0.0422052 0.01259017 -0.054107018
-0.012520552 -0.04013384 0.04930917 -0.030841716 0.08442318 -0.06939255 0.06942227 0.03396626
-0.04049482 0.059575446 0.04005965 -0.08074915 -0.08038373 -0.023460284 0.034486733 0.07294505
-0.029457506 -0.002894327 -0.03496826 -0.005767688 -0.010448895 -0.06732754 -0.03680598 0.047064535
00000000: e0d2 3d3b 1fa0 45bd b0f0 b23b e684 38bd
00000010: 3f6d 8e3d d051 1abd 231e 8f3d 569a 31bd
00000020: ca4a 133d e032 7bbd f055 8abd dde0 45bd
00000030: c0ba f73a 2097 56bc d497 6ebd 004e 3fbc
00000040: c06d afba 9abf 663d ce6d 9bbd c663 7f3d
00000050: 6292 54bd 06f6 1fbd eab6 123d 528e 303d
00000060: b8ad 393c 8519 20bd c1ab 17bd 0060 88bb
00000070: 3640 42bd 7230 16bd 4bd0 973d 0db4 a33d
00000080: dca9 cebc 487c a6bc 60fb 71bc e669 eebc
00000090: c419 c73c 48da 21bd 5ccb 8f3c 06b0 3ebd
000000a0: 9c86 f13c fcdd 96bd 308a 89bd 8063 80ba
000000b0: 05ea 9c3d eeca 1b3d a54e 37bd 87fe 993d
000000c0: 986d acbd 00cc dc3c 49a6 9fbd 704b 8cbb
000000d0: f567 9a3d 00e5 fbba 0e67 87bd 72cc 1c3d
000000e0: da5a 94bd 1a49 003d edac a23d 7377 86bd
000000f0: 5b80 88bd e4fe f83c 75a2 9ebd d75e 61bd
00000100: 82a3 553d 840a 2bbd 98ef 043d f0d0 ee3c
00000110: 5017 7abc 704b 343c c030 adbc 80d4 cabc
00000120: 3f61 8a3d 602d efbb 41f2 5abd 760b 2d3d
00000130: ad5f 803d c028 b5ba d862 343c a6f9 a4bd
00000140: 40d7 0abc 5ea6 68bd 08c7 9b3c fa94 40bd
00000150: 4812 2bbd f9c5 89bd dd3a a43d 1986 3dbd
00000160: 2ef6 80bd a681 9dbd 6a28 b3bd 761a 733d
00000170: a762 9a3d b05c 57bc 90f6 06bd 2efa 90bd
00000180: 486e ccbc 0029 b7bc ccfc 803c bf09 973d
00000190: 730b 893d cc51 bebc 7303 853d 00f7 83bc
000001a0: d12a a23d c8dc 1dbc c113 a33d 9b51 8a3d
000001b0: 4310 4abd 0014 d739 5322 05bd 5ec3 633d
000001c0: 876b 993d 8c07 a2bc 2f28 9a3d 68e7 553c
000001d0: 6061 493c 7486 b2bc 8074 48bb 07f7 8ebd
000001e0: f746 9fbd 4862 403c 7a71 6c3d 206b 9fbb
000001f0: dd4f 99bd ef0f a6bd d693 443d 680e a4bd
00000200: 0a2d 7c3d 9858 49bc e466 d53c d209 2a3d
00000210: eb88 813d 58f4 953c f0d2 8a3b cef4 553d
00000220: ca31 30bd a7e5 2dbd 5467 ab3c b00f 8abd
00000230: 0e97 55bd e8b1 86bd e059 54bb f88d b3bc
00000240: 7a61 71bd fd09 973d 7a8f 6abd 2042 e1bb
00000250: e86e 04bd e84e 8bbd 1bd1 90bd 8e3a 1a3d
00000260: c52e a2bd e2ba aebd 1049 173c a099 c9bb
00000270: b587 893d 307f 1b3c 2079 08bb 18e4 9ebc
00000280: 9c60 b03c 27ac ae3d aef6 603d 7e3b 013d
00000290: 68dd b0bd 23d9 09bd 1aed 1ebd 2d4a 91bd
000002a0: b05c 38bc 68f0 ea3c a868 83bc efde 843d
000002b0: 50d8 07bc 50f6 90bd f569 b13d 089f c7bc
000002c0: 48ab f03c 00fe 8fbc 2085 f53b fcc8 a4bd
000002d0: fc66 7cbd 22f7 413d 0de5 04bd 0ae0 62bd
000002e0: e174 2dbd e80e 92bd f8c1 823c c25b 3d3d
000002f0: 30e1 5bbc ec39 a0bd ec83 04bd 40ce 87bd
00000300: 147a 91bd 1ef7 64bd 6846 34bd c40e 9dbd
00000310: f8b5 1f3c 799c 13bd 4cf7 1abd 806f 8f3c
00000320: 2174 07bd bfef 99bd b8bc 2b3c 96ff 053d
00000330: 0c5b 843c e385 963d 00e1 1a3a 1a9d 683d
00000340: 1c96 933c b60e e4bc d0a1 dabb a1a6 5cbd
00000350: b8f9 bebc 1ee3 19bd 50b0 343c 2070 5a3b
00000360: 6042 e03c 60b0 ad3b 27ed 91bd 82f0 603d
00000370: c58d ad3d 87c1 b43d 08e8 2b3c e09e 863c
00000380: 02ce 51bd 3f54 863d e21f 273d 4786 ac3d
00000390: b88e 62bd 5cdf 2cbd 0047 4e3c 529f 5dbd
000003a0: 0023 4dbc 6263 24bd 6af8 493d c4a7 fcbc
000003b0: 0fe6 ac3d ae1d 8ebd 432d 8e3d 3420 0b3d
000003c0: e5dd 25bd 6205 743d 9615 243d cf5f a5bd
000003d0: 3aa0 a4bd c82f c0bc f641 0d3d 3764 953d
000003e0: de50 f1bc c0ae 3dbb e13a 0fbd e0fe bcbb
000003f0: d831 2bbc 05e3 89bd dec1 16bd bec6 403d

fc2.bias f4 [128]
0.048843883 0.051402412 0.0314227 -0.063326895 0.0654024 -0.0470306 0.14599685 0.018871719
-0.0067046876 0.16320592 0.0024452822 -0.017013509 0.065116875 0.07325693 0.12674077 0.053980116
-0.07992481 -0.05123736 -0.06852997 -0.09521404 -0.09354682 -0.06503943 -0.050306313 0.02273251
0.07206011 0.01758577 0.14719483 -0.08533638 -0.0105187185 0.055626027 -0.033362128 -0.055163898
0.022382092 0.050735988 0.09747446 0.09123788 0.0065594357 0.06968843 0.009097084 0.02304642
0.15888281 0.13726337 0.07139723 -0.044109676 -0.025898695 -0.043639384 -0.09539627 -0.051279753
0.14953841 0.088258445 -0.0498519 0.051667158 0.042586584 0.040833052 -0.015489857 0.053440236
0.013148499 0.0037754665 -0.07433015 -0.0037793592 0.12462806 0.036834463 0.05626525 0.037943345
0.010589958 0.10041497 0.06585177 -0.086378604 0.15082484 0.014851599 0.061707087 0.022498388
-0.08129585 0.13434201 -0.07735495 -0.022260306 0.010805548 0.03146507 -0.057931133 0.026120609
-0.06997748 -0.027028725 0.046328194 -0.036601543 0.005671403 0.08321122 0.067158155 0.004863823
0.137059 -0.030497959 0.024220519 0.060785793 -0.050681155 0.1531776 -0.034055833 0.085443765
0.046216562 0.041265048 0.0346492 0.10580398 0.0013649464 0.13688147 -0.0947513 -0.028674986
0.002506171 -0.05378437 0.04120066 -0.08677276 -0.049643442 -0.029378977 -0.019324519 0.024474148
0.039824583 -0.035915677 0.07969934 0.009314023 -0.0037697025 -0.017875642 0.007644451 -0.012060345
0.008541048 0.013539173 0.104896046 0.1454978 0.05803692 0.13073795 0.031743288 0.061512336
00000000: 8610 483d 568b 523d 17b5 003d 88b1 81bd
00000010: b2f1 853d 29a3 40bd 3380 153e dd98 9a3c
00000020: ffb2 dbbb 741f 273e 0741 203b ea5f 8bbc
00000030: ff5b 853d bb07 963d 55c8 013e 411a 5d3d
00000040: 9eaf a3bd 44de 51bd 7159 8cbd 94ff c2bd
00000050: 7a95 bfbd 6533 85bd fe0d 4ebd 8739 ba3c
00000060: 4094 933d 0810 903c 3eba 163e d7c4 aebd
00000070: b456 2cbc 1ed8 633d baa6 08bd 8af3 61bd
00000080: a65a b73c 8ad0 4f3d b1a0 c73d edda ba3d
00000090: 89f0 d63b cfb8 8e3d f00b 153c d9cb bc3c
000000a0: 2db2 223e c58e 0c3e b638 923d 59ac 34bd
000000b0: 8029 d4bc 36bf 32bd 1f5f c3bd b80a 52bd
000000c0: 9920 193e d8c0 b43d 8231 4cbd f1a0 533d
000000d0: 456f 2e3d 8f40 273d 2bc9 7dbc 26e4 5a3d
000000e0: cd6c 573c d16d 773b 683a 98bd 20af 77bb
000000f0: ff3c ff3d bcdf 163d 6476 663d 7b6a 1b3d
00000100: 8181 2d3c 5da6 cd3d 4bdd 863d 44e7 b0bd
00000110: d471 1a3e 1f54 733c 92c0 7c3d 8a4e b83c
00000120: 707e a6bd f490 093e 466c 9ebd 3f5b b6bc
00000130: c109 313c 84e1 003d 3249 6dbd e3fa d53c
00000140: 5a50 8fbd 586b ddbc a2c2 3d3d 80eb 15bd
00000150: 2dd7 b93b a56a aa3d 378a 893d b460 9f3b
00000160: 3259 0c3e dbd6 f9bc 1c6a c63c 86fa 783d
00000170: 0b97 4fbd 97da 1c3e 217e 0bbd 24fd ae3d
00000180: 944d 3d3d 8a05 293d 52ec 0d3d c2af d83d
00000190: 00e8 b23a a82a 0c3e f80c c2bd cee7 eabc
000001a0: 923e 243b 004d 5cbd 06c2 283d ebb5 b1bd
000001b0: ec56 4bbd 2eac f0bc 744e 9ebc 027e c83c
000001c0: 1a1f 233d 511c 13bd 6839 a33d d899 183c
000001d0: 1d0d 77bb f06f 92bc 4e7e fa3b c198 45bc
000001e0: c0ef 0b3c 68d3 5d3c bdd3 d63d 60fd 143e
000001f0: 1fb8 6d3d 2be0 053e 4005 023d 5cf4 7b3d

fc3.weight f4 [3, 128]
-0.038718265 -0.03901912 0.030836048 -0.122988425 -0.03331487 -0.04562758 0.13899535 -0.077074304
-0.06121443 0.11728292 -0.040048305 -0.04892249 0.0110194385 0.036043104 0.05600349 0.07676849
-0.026188787 -0.061701268 -0.019193359 0.039466307 -0.04872696 0.080031194 0.0090608215 0.072454035
0.095095955 -0.028896026 0.09434695 0.07774084 -0.015341159 0.056515396 0.024740309 -0.01555796
0.086810805 -0.015079888 0.08189561 0.09004125 0.123954184 -0.033278577 -0.06528504 0.051126
0.11991676 0.11285652 -0.092244044 0.067015894 0.008186403 0.020752117 0.036933824 0.07970903
0.06755812 0.078025274 -0.002201067 0.04536835 0.043214783 0.04147105 0.06369216 0.048750445
0.06899252 -0.06842752 0.028485633 -0.00041672587 0.08935913 0.13374722 0.039250344 -0.005183886
0.017391216 0.05437965 0.07595625 0.08556975 0.08701349 0.035666697 -0.087657385 0.089042954
0.09046071 0.06386868 -0.042243086 0.07812675 0.12559155 0.041654907 0.010653651 0.009862146
-0.08150512 -0.062281597 0.0762287 -0.070607446 -0.04859765 0.023209883 0.025806172 -0.057642303
0.059251323 -0.042236537 0.037162937 -0.010865102 -0.03391655 0.1294085 0.055439327 0.08394738
0.05661174 0.064346515 0.10615368 0.11761414 0.07317897 0.11834011 -0.033351667 0.017281186
0.01769176 0.06583173 0.05298493 0.043198355 0.04022912 -0.07824691 0.06695547 -0.03698597
0.098403685 0.0036700969 -0.0030127615 0.06981739 0.038842574 0.028187927 0.04777081 -0.0049969666
0.059083037 -0.0777338 0.021636002 0.13259539 0.063998826 0.111674026 -0.053893026 -0.044798765
0.07329347 -0.05949446 0.03588914 0.005238908 0.028751979 -0.013243978 0.0837158 0.018464165
0.0010654294 0.059258536 -0.057828393 -0.13997708 0.018219268 0.13185498 0.079781406 0.12778307
0.06610135 0.05063481 -0.03883757 0.018929856 -0.069831185 -0.04762816 0.02357404 0.010837465
0.10724365 -0.0525243 0.14114931 -0.06935056 0.0071760095 -0.0052592494 0.010118395 0.0642209
-0.021089686 0.004745698 0.0133386385 -0.00030787103 0.112952776 -0.028525513 -0.06565144 0.062975235
0.09876189 0.07827871 0.008455686 0.00612729 -0.039485153 0.026311234 -0.06990895 0.081992425
0.09842228 0.035608083 -0.019732673 0.01926396 -0.03497753 0.0031523742 0.10544525 -0.027556416
-0.079604514 0.02666846 -0.006098777 0.046528406 0.058453973 0.021112809 -0.056915 0.10940618
0.047109243 -0.0011272829 0.10678847 -0.011365305 0.07890752 0.06855204 0.029251568 -0.01209168
-0.0027195348 0.08643763 -0.03526422 -0.019886024 0.07720789 0.040523488 -0.056778334 -0.0441384
-0.026003603 -0.0023256405 -0.06892501 0.043598495 0.04521054 0.052382067 0.042516552 0.076632835
0.04715601 0.08822201 -0.053016845 -0.077866174 -0.030552674 0.07688974 0.04600321 0.108206466
0.116548404 -0.0038335246 0.09426771 0.098049924 0.06773362 0.033697877 0.022310963 -0.06304611
0.034530856 -0.062346026 0.023898015 0.080573514 -0.065998405 -0.048947338 -0.05093436 -0.04917088
0.08223721 -0.046832997 -0.048157357 0.081846885 -0.040431496 0.04294556 0.07850443 -0.02788582
0.07662823 -0.018479466 0.07140108 0.053948294 0.011733115 0.13603619 0.07371775 -0.050818145
00000000: 0b97 1ebd 83d2 1fbd e19b fc3c 5be1 fbbd
00000010: 2c75 08bd fce3 3abd cc54 0e3e 22d9 9dbd
00000020: fbbb 7abd 0732 f03d b109 24bd f362 48bd
00000030: e08a 343c efa1 133d ea63 653d cc38 9d3d
00000040: de89 d6bc 78ba 7cbd 643b 9dbc 6ca7 213d
00000050: ec95 47bd 65e7 a33d d773 143c c862 943d
00000060: abc1 c23d 5cb7 ecbc f938 c13d 9736 9f3d
00000070: 7c59 7bbc b07c 673d 30ac ca3c d0e6 7ebc
00000080: ddc9 b13d a211 77bc e3b8 a73d 8c67 b83d
00000090: b1db fd3d 1e4f 08bd 2ab4 85bd 7f69 513d
000000a0: eb96 f53d 5221 e73d 72ea bcbd a13f 893d
000000b0: 4320 063c 5800 aa3c ec47 173d 7d3e a33d
000000c0: e95b 8a3d b7cb 9f3d c73f 10bb 2ad4 393d
000000d0: fc01 313d 8cdd 293d 0971 823d 8cae 473d
000000e0: f34b 8d3d ba23 8cbd b45a e93c 007c dab9
000000f0: eb01 b73d 08f5 083e f8c4 203d 96dd a9bb
00000100: 0678 8e3c 32bd 5e3d f38e 9b3d 313f af3d
00000110: 2134 b23d 3e17 123d b785 b3bd 275c b63d
00000120: 7743 b93d 95cd 823d 1607 2dbd eb00 a03d
00000130: 129b 003e 569e 2a3d a78c 2e3c d794 213c
00000140: 28ec a6bd fd1a 7fbd cb1d 9c3d a39a 90bd
00000150: 540e 47bd a722 be3c 7767 d33c 561a 6cbd
00000160: 84b1 723d 3800 2dbd 2a38 183d 8a03 32bc
00000170: 15ec 0abd a983 043e 5914 633d 9bec ab3d
00000180: b6e1 673d 1bc8 833d 1a67 d93d afdf f03d
00000190: dbde 953d 4d5c f23d c29b 08bd 4691 8d3c
000001a0: 4fee 903c c9d2 863d ba06 593d c2f0 303d
000001b0: 4ac7 243d ea3f a0bd f31f 893d 9a7e 17bd
000001c0: df87 c93d 0286 703b c071 45bb 6bfc 8e3d
000001d0: 6419 1f3d 5eea e63c 53ab 433d 98bd a3bb
000001e0: 0e01 723d e632 9fbd fc3d b13c 16c7 073e
000001f0: d111 833d 5ab5 e43d efbe 5cbd e97e 37bd
00000200: e31a 963d 76b0 73bd 7e00 133d 25ab ab3b
00000210: 4589 eb3c 45fd 58bc 3073 ab3d 2942 973c
00000220: e1a5 8b3a 14b9 723d 77dd 6cbd 2756 0fbe
00000230: 9340 953c fe04 073e 6f64 a33d 91d9 023e
00000240: 2560 873d 7266 4f3d 2514 1fbd c912 9b3c
00000250: a703 8fbd bf15 43bd 581e c13c 9f8f 313c
00000260: 8fa2 db3d b823 57bd 7289 103e ab07 8ebd
00000270: bb24 eb3b c855 acbb a0c7 253c 3f86 833d
00000280: 47c4 acbc cd81 9b3b 4e8a 5a3c c069 a1b9
00000290: c953 e73d 56ae e9bc 4374 86bd 29f9 803d
000002a0: ac43 ca3d 9750 a03d b889 0a3c 6fc7 c83b
000002b0: 2fbb 21bd a88a d73c 6c2c 8fbd a5eb a73d
000002c0: 9f91 c93d c8d9 113d 6aa6 a1bc 74cf 9d3c
000002d0: 9944 0fbd 1098 4e3b aef3 d73d febd e1bc
000002e0: b107 a3bd d077 da3c 40d8 c7bb 9294 3e3d
000002f0: 6f6d 6f3d c5f4 ac3c b41f 69bd 5910 e03d
00000300: 9ff5 403d 56c1 93ba eab3 da3d 8b35 3abc
00000310: 449a a13d 0365 8c3d fca0 ef3c 2f1c 46bc
00000320: 393a 32bb 3606 b13d 3771 10bd 04e8 a2bc
00000330: 2c1f 9e3d f5fb 253d 6690 68bd 78ca 34bd
00000340: 8205 d5bc c669 18bb 8e28 8dbd 5694 323d
00000350: b02e 393d 948e 563d d625 2e3d adf1 9c3d
00000360: a926 413d bead b43d 3128 59bd 4d78 9fbd
00000370: 9a49 fabc 5e78 9d3d dd6d 3c3d 5a9b dd3d
00000380: eeb0 ee3d df3b 7bbb 6e0f c13d 66ce c83d
00000390: edb7 8a3d c906 0a3d 7bc5 b63c 521e 81bd
000003a0: 3a70 0d3d 8c5e 7fbd c5c5 c33c ba03 a53d
000003b0: 2c2a 87bd 017d 48bd 8ca0 50bd 6867 49bd
000003c0: fb6b a83d f5d3 3fbd a640 45bd 579f a73d
000003d0: 7f9b 25bd afe7 2f3d eec6 a03d ce70 e4bc
000003e0: 43ef 9c3d 4062 97bc bb3a 923d e3f8 5c3d
000003f0: 403c 403c 124d 0b3e 55f9 963d b026 50bd

fc3.bias f4 [3]
0.1503466 0.023869522 0.11094364
00000000: 76f4 193e 048a c33c 6b36 e33d
